Model: "model_21"
_________________________________________________________________
Layer (type)                 Output Shape              Param #   
=================================================================
input_24 (InputLayer)        [(None, 273)]             0         
_________________________________________________________________
dense_108 (Dense)            (None, 150)               41100     
_________________________________________________________________
dense_109 (Dense)            (None, 50)                7550      
_________________________________________________________________
Feature_latent (Dense)       (None, 10)                510       
_________________________________________________________________
dense_110 (Dense)            (None, 50)                550       
_________________________________________________________________
dense_111 (Dense)            (None, 150)               7650      
_________________________________________________________________
dense_112 (Dense)            (None, 273)               41223     
=================================================================
Total params: 98,583
Trainable params: 98,583
Non-trainable params: 0
_________________________________________________________________
None
Epoch 1/50
74/74 [==============================] - 2s 10ms/step - loss: 1.5561 - val_loss: 0.1515
Epoch 2/50
74/74 [==============================] - 0s 5ms/step - loss: 0.1346 - val_loss: 0.1207
…
